Final App/app/src/main/ml/headsup_audio_classification.tflite (tflite, 180456 bytes, 7 tensors)

sequential_1/dense_5/BiasAdd/ReadVariableOp f4 [100]
00000000: f0ef 18bc 3ae3 08bd 60c0 ecbc 9a7e 8abc
00000010: 4f74 923b 3f78 1fbc 42b2 dcbc 8fee 9bbc
00000020: 15c5 2cbc a071 d4bc cfa0 08bc 92e5 cfbc
00000030: b22b 80bc 4d6e e4bc 550b 94bc 7116 ddbc
00000040: 1910 5ebc 4ee3 a8bc ac94 cbbc 5245 69bc
00000050: 50de c6bc afa2 2fbc 775d cdbc cd09 40bc
00000060: 627e c1bc 5826 febc 80b4 94bc 4f2e c3bc
00000070: c993 c8bc 2456 7f3b 7a8e afbc e80e 7cbc
00000080: c48f b5bc 9b73 99bc 484c b1bb 7ad6 9ebc
00000090: e2f6 bcbc f2b4 b5bc c855 62bc 3d09 cabc
000000a0: 9f35 c0bc 11b9 93bc 7169 b8bc 604d b6bc
000000b0: 0be7 22bc 24b3 55bc d19e 02bd 8257 fbbc
000000c0: 5058 cebc 043a c4bc e222 9cbc 952b 02bd
000000d0: f91c a7bc 3e51 aabc d84a e9bc 8372 39ba
000000e0: a403 25bc 45de 4dbc dd47 7dbc 587c 1bbc
000000f0: 17d2 d7bc cea0 6dbc df9b 9bbc 7cde 4bbc
00000100: 42d0 87bb 0870 70bc d3cf eabc 3886 60bb
00000110: 1ce8 a4bc b0ed 9dbc 2a55 b2bc ae57 2b3c
00000120: 148d efbc cd1c e7bc 7d76 86bc d6e0 83bc
00000130: d097 babc 6d97 fdbc 92ea c4bc 9724 6dbc
00000140: 1383 7abc fc04 51bb bf49 a8bc 1d4f afbb
00000150: 770b 90bc e12b edbc 8c00 babc e2c2 8dbc
00000160: 773f 04bd 69ee 95bc 0880 01bd bca1 c0bc
00000170: 78f8 9fbc a1a2 b9bc aa30 a5bc 8bfe b3bc
00000180: a84c 09bd bf26 d1ba c18b 0dbc e860 d2bc
-0.009334549 -0.033419825 -0.028900325 -0.016906071 0.0044694315 -0.009733259 -0.026940469 -0.019034652
-0.010545035 -0.025933087 -0.008339121 -0.025378022 -0.015645836 -0.027884627 -0.01807181 -0.02698824
-0.013553643 -0.0206162 -0.024851166 -0.014237719 -0.024275929 -0.010719939 -0.025068982 -0.011721087
-0.023619834 -0.031024143 -0.018152475 -0.023825793 -0.024484532 0.0038961256 -0.021430243 -0.015384413
-0.02216328 -0.018731883 -0.0054107048 -0.01938938 -0.023066942 -0.022181008 -0.013814397 -0.024662608
-0.023463069 -0.018032582 -0.022511216 -0.022253692 -0.00994278 -0.013043199 -0.03188974 -0.030681375
-0.025188595 -0.023953445 -0.019059602 -0.031779844 -0.020399557 -0.020790692 -0.028478071 -0.00070742535
-0.010071669 -0.0125652 -0.015459028 -0.009490095 -0.026345296 -0.014503671 -0.018995224 -0.012443181
-0.0041446993 -0.014675148 -0.028663551 -0.0034259688 -0.02013021 -0.019278377 -0.021769125 0.010457916
-0.029242076 -0.028211975 -0.016413921 -0.016098421 -0.022777468 -0.030955995 -0.024037633 -0.014474056
-0.01529004 -0.003189384 -0.020542977 -0.005350007 -0.017583592 -0.028951587 -0.022705339 -0.017304841
-0.032287087 -0.01830216 -0.03161624 -0.023514621 -0.019527659 -0.022660555 -0.020164806 -0.021971961
-0.03352037 -0.0015956982 -0.008639277 -0.025680974

sequential_1/dense_4/BiasAdd/ReadVariableOp f4 [200]
00000000: 202f b7bb 9fee 0fbb 512d c5bc c8c8 203d
00000010: fd7f 79bc 39df dcbc 4132 bfbb 61a4 e4bc
00000020: 69e5 dcbc 2185 91bc 471f a6bc c817 d4bc
00000030: 4ef4 b6bc d106 e8bc a653 31bc e34d 78bc
00000040: d6db 20ba a6ac b9bc cebb b8bc ddee c8bb
00000050: 7896 a9bc 787f 6cbc 6c12 68bc a355 b2bc
00000060: 3f57 a8bc c784 23bc 5d17 98bc 5e36 19bc
00000070: 3e0e d6bc e2b6 d13c 502c 273a 7f1f 9bbb
00000080: 2584 93bc d473 81bc 034a 2ebc bb99 0f3c
00000090: 1cae 9139 2aaf b2bc 2947 e7bc 1878 c8bc
000000a0: 404d 1ebc 6a37 90bc ce69 00bc a6d2 adbc
000000b0: 3d7a ebbb 3015 b7bc f1f6 59bc 359a b6bc
000000c0: 8195 4fbc 9f58 14bb db2d e9bb 1ce3 62bc
000000d0: f301 503c 99a1 c5bc 0420 6bbc 4698 863a
000000e0: d788 da3b 3f08 c9bb 3eaf 95bc 5db2 8739
000000f0: 140d 68bc 78e6 95bc b226 a93c 353c 46bc
00000100: 3edb a3bc 29f0 69bc 8c11 6e3c 161c 8e3c
00000110: 04a2 7e3b be64 82bc 09cb 41bc 4720 d3bc
00000120: 92fc 97bc 52df ccbc dad2 bdbb 91c8 eebc
00000130: 8ba8 94bb ddc2 cebc 336e 823c f391 a8bb
00000140: 010e afbc 7b13 c9bc 07e8 babc 2fe9 0f3c
00000150: 8cfb 1fbb 5399 153c 4ba4 29bc 0106 563c
00000160: 99ae a7bc 9062 6cbc ccb7 863c a7f2 b4bc
00000170: a053 f4bb 7b29 8fbc 48c8 e7bb 29ae 64bc
00000180: 6ae9 8d3c 71fb 7bbc 1a56 d6bc 4c79 eebc
00000190: 8e18 193b 2632 b1bc d9bc 7ebc 4c50 c5bb
000001a0: 9b74 87bc dacf 5b3c 0d7a 83bc 068d 063c
000001b0: fb8c 6abc aa48 cdbc 0a8a 8bbc 47f6 5fbc
000001c0: 34af adbc 0957 8fbb 43f8 70bc 3268 49bb
000001d0: b1d1 2dbc 98e7 a13b e396 b1bc 2b26 cdbb
000001e0: c457 65bc 8250 cbbc 470d 38bc 2769 b7bc
000001f0: fb03 53bc e024 e43b d5ae 103c 840a adbc
00000200: 55ec 8abc 6273 a7bc b099 a3bc 9f84 0fbb
00000210: 08e2 51bc fecb 55bc 5b22 a3bc 2268 1dbc
00000220: 2d18 e8bb 6221 47bc f3b9 eebc fa19 8ebc
00000230: 5a79 01bc ada6 353c 6170 cebb 57a0 37bc
00000240: 1187 5abc 267a 62bc 8295 b7bc 029f 97bc
00000250: 7b4e e8bc bec5 8bbc d88b 24bc da9c 6fbc
00000260: 5097 3abb 024e 57bb d8af 133c d359 613c
00000270: 0024 b3bb 29a5 943b 6c77 4cbc 914a d73b
00000280: a058 50bc 4a70 a83b e702 0dbd 1e43 b5bc
00000290: 54fe dcbb 05f2 e5bc 9a8d 93bc 76ab 4abc
000002a0: ef42 77bc 4bbf 0abc c477 2bbc c366 1abc
000002b0: 020d 02bc 7492 dabc 226d bfbc 8c6d ccbc
000002c0: b131 9fbc 66bd bebc ecac 88bc 6110 113c
000002d0: 6a4e 7ebc f2f3 bcbb 3338 8fbc 0056 823b
000002e0: ce8d 50ba 0094 803b 8c28 b2bc f7ca ccbc
000002f0: e114 a3bc d0bf 93bc 302c 833c 2fc4 78bc
00000300: de1a 69bc 1994 a9bc f0f4 9fbc eacb 69bc
00000310: 0fc5 c8bb 1507 a03b 45e3 12bb a1e2 dcbb
-0.0055903345 -0.0021962298 -0.02406946 0.03925398 -0.015228269 -0.02696191 -0.005834848 -0.027910413
-0.02696486 -0.017763676 -0.020278586 -0.025890246 -0.02233329 -0.028323563 -0.010823166 -0.015155288
-0.0006136274 -0.022665333 -0.02255049 -0.0061319903 -0.020701632 -0.014434688 -0.014164548 -0.02176935
-0.020549415 -0.009980387 -0.018565828 -0.009351341 -0.026129838 0.0255999 0.00063771475 -0.0047339792
-0.018007347 -0.015802301 -0.010637763 0.00876468 0.00027786277 -0.02181204 -0.028232174 -0.024471328
-0.0096619725 -0.017604548 -0.007837726 -0.021218609 -0.007186203 -0.02234897 -0.013303504 -0.022290329
-0.012669922 -0.002263583 -0.007116062 -0.013848092 0.012695777 -0.024124907 -0.014350895 0.001026877
0.0066691446 -0.006135016 -0.018272039 0.00025882098 -0.014163274 -0.018298373 0.020648334 -0.012099315
-0.020002004 -0.01427845 0.014530551 0.017347377 0.0038853893 -0.015917178 -0.0118281925 -0.025772227
-0.018553052 -0.025008831 -0.0057929577 -0.029148372 -0.0045366935 -0.025239402 0.015921688 -0.0051443516
-0.021368982 -0.024545422 -0.022815717 0.008783623 -0.0024411408 0.009130794 -0.010354112 0.013062955
-0.020468997 -0.014427796 0.016445063 -0.022088362 -0.007456258 -0.017475834 -0.007073436 -0.013957539
0.017323215 -0.0153797725 -0.026164103 -0.029110573 0.0023360583 -0.021630358 -0.0155479545 -0.006021535
-0.016535094 0.013416255 -0.01604941 0.008212334 -0.014315839 -0.025059063 -0.017033596 -0.013669557
-0.021201707 -0.004374389 -0.014707628 -0.0030732271 -0.010609076 0.004940938 -0.021678394 -0.0062606535
-0.013997976 -0.024818663 -0.011233634 -0.022389008 -0.012879367 0.0069624037 0.008830746 -0.021123178
-0.016958395 -0.020440761 -0.019970745 -0.0021899117 -0.012810238 -0.013049124 -0.019913843 -0.009607347
-0.00708296 -0.012153955 -0.029141402 -0.017346371 -0.007902468 0.011087102 -0.0063000177 -0.011207662
-0.013337866 -0.013823068 -0.022410158 -0.018508438 -0.028357735 -0.017062064 -0.010043107 -0.014624799
-0.0028471537 -0.0032852893 0.009014092 0.013754326 -0.005466938 0.00453629 -0.012479644 0.0065701683
-0.012716442 0.005140339 -0.034426596 -0.02212673 -0.0067441855 -0.028069505 -0.018011857 -0.012369981
-0.015091642 -0.008468459 -0.010465566 -0.009423914 -0.007937672 -0.026681162 -0.023367468 -0.02495458
-0.019432874 -0.023283672 -0.016684018 0.008854003 -0.015521625 -0.0057663852 -0.017482853 0.003977537
-0.0007955701 0.003923893 -0.02174785 -0.024999125 -0.019907417 -0.0180358 0.016012281 -0.015183493
-0.014227597 -0.020700501 -0.019525975 -0.014269808 -0.006127007 0.0048836567 -0.0022413295 -0.0067408835

sequential_1/dense_3/BiasAdd/ReadVariableOp f4 [100]
00000000: 1c5f b33b 74f6 1ebb 0000 0000 0000 0000
00000010: e69d dcbc e840 f2bc 0000 0000 0000 0000
00000020: 0000 0000 0000 0000 9bca e63b 0000 0000
00000030: 1d21 36bd 0000 0000 0000 0000 0000 0000
00000040: 0000 0000 0000 0000 0000 0000 fdbb aa3b
00000050: 0000 0000 f8cc 143c 6ff8 f3bc 23ed 09bd
00000060: 0000 0000 e0b4 05bd 0000 0000 7b30 ebbc
00000070: 0000 0000 0000 0000 b76d 0ebd c16d fcbc
00000080: 4f97 b5bc 0000 0000 d1ec c9bc 0000 0000
00000090: 54cc 06bd e1a0 f7bc d3f4 9ebc 4b45 bfbb
000000a0: eeae 17bd 0000 0000 a92e cabc 0000 0000
000000b0: 6f91 05bd 2c56 81bc 9182 c0bc 0000 0000
000000c0: ce4d 6c3c 2611 0bbd e6b2 9b3c 0000 0000
000000d0: d0e6 01bd fa6d f8bc 6b69 04bd 16f9 88ba
000000e0: 2c18 c6bc 17a1 0ebd ec86 1cbd 0000 0000
000000f0: 0000 0000 cb7b 48bb 5dba 14bd 6fb3 603c
00000100: 0000 0000 a733 c2bc 0000 0000 0000 0000
00000110: 8011 6fbc 0000 0000 0000 0000 0000 0000
00000120: 0000 0000 73eb 08bd 0000 0000 0000 0000
00000130: 8e08 64bc 0000 0000 0000 0000 c750 a6bc
00000140: 0000 0000 0000 0000 0000 0000 dbf2 e1bc
00000150: 4cf9 12bc 6f8f 863b 0000 0000 0000 0000
00000160: 05a5 fc3b 75d6 81ba fed8 1ebd 0eaf 5bbc
00000170: 299d 9239 0000 0000 0000 0000 e22b f5bc
00000180: 0000 0000 9e95 72bc 0000 0000 aedc efbc
0.0054739844 -0.0024255784 0.0 0.0 -0.02693076 -0.029571965 0.0 0.0
0.0 0.0 0.0070431954 0.0 -0.044465173 0.0 0.0 0.0
0.0 0.0 0.0 0.005210398 0.0 0.0090820715 -0.029781548 -0.033673417
0.0 -0.0326432 0.0 -0.02870964 0.0 0.0 -0.0347726 -0.030814053
-0.022166876 0.0 -0.024649056 0.0 -0.032909706 -0.03022808 -0.01940385 -0.005837118
-0.03703206 0.0 -0.024680452 0.0 -0.0326094 -0.01578816 -0.023499759 0.0
0.014422847 -0.0339519 0.019006204 0.0 -0.03171426 -0.030325878 -0.032327097 -0.001045021
-0.024181448 -0.034821596 -0.03821461 0.0 0.0 -0.0030591364 -0.036310542 0.013714655
0.0 -0.02370627 0.0 0.0 -0.014591575 0.0 0.0 0.0
0.0 -0.033427667 0.0 0.0 -0.013918055 0.0 0.0 -0.02030219
0.0 0.0 0.0 -0.027581623 -0.00897057 0.004106454 0.0 0.0
0.0077101015 -0.0009905832 -0.03878116 -0.0134084355 0.00027964383 0.0 0.0 -0.029928152
0.0 -0.014806179 0.0 -0.029280033

sequential_1/dense_3/MatMul f4 [100, 40]
00000000: 6726 a1bc 0e50 afbd 024f 463e 3d27 493d
00000010: 833a 35bd a01f 7dbd 9b0f c83d fd99 3bbe
00000020: 6733 893c f910 26be 3b60 783d 99e7 05be
00000030: 31a5 c2bd 230a 083e 726f 903c e787 5d3e
00000040: f2c2 393e 1342 d8bc 9a02 2cbe 7f63 b5bd
00000050: 567e 58be c4c3 cebd a362 24be edd1 90bc
00000060: 9d3e 48be 3624 bcbd 0636 343e cfff 4d3e
00000070: 568c e73d 35ab f1bd f73a ea3d 2084 593d
00000080: d849 49bd 3391 933d e5ac 31be ff3c c33d
00000090: 704c 3a3d a974 453e b823 373e d6c6 f4bd
000000a0: 1b6c 293c 35da 42be 4331 1e3e f155 7d3d
000000b0: 65cd d7bc c760 04be 6ccf f8bc 5434 573d
000000c0: 8a53 a8bd c55b 35be 183c b3bd 5a7d 273e
000000d0: 060a fe3d 85a9 363e 378e 44be 7d55 c33d
000000e0: 9fdb 183e ff06 863d 0d72 3ebd 64ae 33be
000000f0: 5a7b dabd af57 f9bd 0cbc 0dbe ae19 233d
00000100: 8103 92bd 716b 31be a579 00be 8f55 3b3e
00000110: 119a 65bc c31d acbc 56a3 023e 0c66 443d
00000120: b7e0 a8bd 40ae 23be d5b8 143e c6dd 0e3e
00000130: 6c30 a9bd 1ece 42be dc41 363e 21ff f4bd
00000140: 7599 0b3e 0690 b73d 659a 45be f81e 0f3d
00000150: 800b ae3a bbf0 173e 6035 0dbc 0467 4e3d
00000160: 81b8 2abe 8645 4dbe f0e2 02be 9043 0c3d
00000170: 7600 ebbd 68cd 24be 42d4 21be ae4b f43d
00000180: f6a4 07be b027 e4bc 49d8 3fbe 88bb c93c
00000190: 79cc 443e 77b0 2e3e cc89 23be 6904 383e
000001a0: 6183 dabd 804b 8d3c e45d 40be 00af d33a
000001b0: 800c 1dbe 967e d03d f42e 053d 52ef 8f3d
000001c0: 5863 08be fe87 8f3d 5f78 4a3e 60ba 1f3d
000001d0: 4cad 01be d21c 8cbd c0c0 383c 7814 e33c
000001e0: 562b f33d b305 39be 2d8c 1c3e 4fd6 cbbd
000001f0: 4cce 8dbd 771c 53be 0f60 e3bd 2d2d 2e3e
00000200: 891d 37be 73b9 11be db2e 09be e7cd f0bd
00000210: 9420 6dbd 783b 03bd fc74 323d 2fdc 153e
00000220: 5ed4 913d 8ba4 3abe 6c1b 313d 7acf d8bd
00000230: 135f 413e d2ce 8abd 9dd7 223e a5d9 443e
00000240: da37 813d 9831 64bd f664 dcbd 9ffd 173e
00000250: 8ffb 163e 5287 853d c0f7 8cbd 4db5 fabd
00000260: 380a 1b3d c40b 4a3d ea06 d53d 9498 613d
00000270: 6281 9abd d081 e63c 9b3b 45be 38af 47bd
00000280: cb84 93bd 0f46 2abe e854 213e b313 46be
00000290: 4b1f 493e 654a 56bd 52be 3d3e 5c2f 163d
000002a0: c1b3 5b3e 9756 ed3d 08e7 083e 3ae9 f13d
000002b0: 6905 25be ab9e 6aba c5c6 953c 91d6 90bd
000002c0: 038c 0c3d 7f3c 31be 63b2 1d3e 9aa3 5bbd
000002d0: 34a1 e23c 8f94 95bd 106b 2dbe 9a3e 5b3d
000002e0: ab21 563d d3f6 babc 4847 a73d 29a8 b8bd
000002f0: 842a 1c3e 1556 d2bd 50a0 01be dcc9 1e3e
00000300: 3907 183e 6e35 0e3e fdb5 213e ad79 21be
00000310: 2692 663e 1fb8 1bbe cfbd 453e 2e41 33be
00000320: 6438 bbbd 64f4 19be 11c0 85bd 4cd8 743c
00000330: fa95 30bd 13a7 3a3d 4b6b 6b3e 18a0 7f3c
00000340: d0fd d3bd 73e7 16bd 98f7 533e 5ebc 143e
00000350: 895a ddbc 8b9f ddbd a975 253e bd6c 03be
00000360: f297 dc3c 8104 d83d ea01 95bd ebf9 90bd
00000370: bf8f 573d 9fbe d7bd 96e7 41bd ad82 4f3c
00000380: 9385 dabc 503f f83d 904a 8a3c d76f c73d
00000390: cba7 f73c 5e8a 003e e6b5 0a3d d3e8 20be
000003a0: 4635 23bc 4202 c4bd 64d0 5c3e fff4 213e
000003b0: 79d3 4f3e 6cfe 293e 98c3 1ebe 8bb8 ae3d
000003c0: 1dc9 473e 2c93 2abd f8f8 d1bc 4c43 e1bd
000003d0: 5833 50bd 60e0 0cbd c0f1 9e3b 7ee2 b23d
000003e0: 1702 b9bd fc1e 133d 228a a93d 90bb 2c3d
000003f0: 19fb 213e 884b 51bd 00a0 56b9 167c fb3d
-0.019671632 -0.08560191 0.19366077 0.049109686 -0.044245254 -0.061797738 0.097686015 -0.1832046
0.016748143 -0.16217412 0.060638648 -0.13076629 -0.09504164 0.13285117 0.017631266 0.21633874
0.18140772 -0.026398694 -0.16797867 -0.08856868 -0.21141943 -0.10095933 -0.16053252 -0.017678225
-0.19555135 -0.09186594 0.17598733 0.20117114 0.11306064 -0.11800233 0.11437028 0.05310452
-0.04914269 0.07205429 -0.1735111 0.095331185 0.045483053 0.19282784 0.1788472 -0.119519874
0.010340716 -0.19028552 0.1544848 0.06184954 -0.026343057 -0.12927543 -0.030372344 0.05254014
-0.08219059 -0.17710789 -0.08751696 0.16356412 0.124042556 0.17838104 -0.19194876 0.0953779
0.14927529 0.06544303 -0.046495486 -0.17546993 -0.10668059 -0.121749274 -0.13841265 0.039819412
-0.071295746 -0.17326142 -0.12546404 0.18294357 -0.014013783 -0.021010285 0.1275762 0.047948882
-0.08245986 -0.1598444 0.14523633 0.13951787 -0.08261189 -0.1902394 0.17798561 -0.119627245
0.13632758 0.08963017 -0.19297178 0.034941643 0.0013278574 0.14837925 -0.008618683 0.050391212
-0.16671945 -0.20046052 -0.12781882 0.03424412 -0.11474697 -0.16093981 -0.15803626 0.11928497
-0.13246521 -0.027850956 -0.1873485 0.024625555 0.19218625 0.17059503 -0.15970534 0.17970432
-0.1066959 0.017247915 -0.18785816 0.0016150177 -0.153368 0.10180394 0.03251548 0.070280686
-0.13319147 0.0700836 0.1977248 0.0389961 -0.12663764 -0.068414345 0.011276424 0.027719721
0.118735 -0.1806858 0.15287848 -0.099529855 -0.06924114 -0.20616327 -0.11102306 0.1700942
-0.1788236 -0.142309 -0.1339678 -0.11758023 -0.057892397 -0.032039136 0.043568596 0.14634775
0.07120584 -0.1822683 0.043239042 -0.10586448 0.18883924 -0.06777729 0.15902562 0.1922365
0.06309481 -0.05571136 -0.10761444 0.14842843 0.147444 0.06519951 -0.06883192 -0.12241612
0.037851542 0.049327627 0.104017094 0.05507715 -0.07544209 0.028138071 -0.19261019 -0.048751086
-0.072030626 -0.16628288 0.15755045 -0.19343452 0.19640844 -0.052317042 0.18529633 0.03666626
0.2145529 0.11588781 0.13369381 0.118120626 -0.16115345 -0.0008950035 0.018283257 -0.07072175
0.034313213 -0.17308234 0.1540008 -0.05362282 0.027664758 -0.07303726 -0.16935372 0.0535265
0.052278202 -0.022822773 0.08167893 -0.09016449 0.15250593 -0.10270325 -0.1265881 0.1550669
0.14846505 0.1388757 0.1579208 -0.15769072 0.22516689 -0.15206955 0.19310687 -0.17505333
-0.09141615 -0.15034634 -0.065307744 0.014944147 -0.04311178 0.04556949 0.22990148 0.015602134
-0.10351145 -0.03684182 0.20699918 0.14524981 -0.02702071 -0.10821446 0.16158165 -0.12834449
0.026927922 0.10547734 -0.07275756 -0.07078918 0.05262732 -0.10534405 -0.04734 0.012665433
-0.026675021 0.12121451 0.016881257 0.09738129 0.030231377 0.12552783 0.033864878 -0.15713815
-0.009961432 -0.09570743 0.2156387 0.15816115 0.20295514 0.1660096 -0.155043 0.085312925
0.19510312 -0.04164426 -0.025631413 -0.10999164 -0.050830215 -0.03439367 0.004850596 0.08734606
-0.09033602 0.03591822 0.082783 0.04217106 0.15818442 -0.051097423 -0.00020468235 0.12279527

sequential_1/dense_4/MatMul f4 [200, 100]
00000000: a8af 91bd c5af 06be b9d9 0a3e 8089 d83b
00000010: 42e9 00be 4ffc 09bd 4567 84bd 54b4 37bd
00000020: 5b1a fdbd ce37 63bd 6202 db3c 2964 a5bd
00000030: d1a1 6aba 609e f0bd 50c7 9a3d 7e79 edbd
00000040: ccec 2e3d be81 d9bd cc8c ad3d 2d69 b83d
00000050: f427 b93d d5c0 4fbd 2f94 40bc 3ca9 7dbd
00000060: 3643 ff3d f93f 1bbd 242c 9abd 8007 90bc
00000070: 00ef 2f3c 307d 263d 4a44 a8bd 6277 98bc
00000080: 9916 dfbb c023 0ebd ce9a 693d c7c1 07be
00000090: dd03 29bd c363 97bd 13be afbc d21e 0a3e
000000a0: 08e1 a33d e0a0 bfbc 8114 183c 673b 0a3e
000000b0: 41bd 04bd 2d71 e7bb 9d26 efbd 7ca1 a1bc
000000c0: 7e32 993d 0b4a 78bd 8b2d 7fbd a03f edbb
000000d0: 93eb 68bd 58e4 62bd 069e 71bd f679 d33d
000000e0: c7a4 883d 68a5 2a3c 8ff4 92bb 28ef a7bd
000000f0: a9de c1bd ecec 0ebe 6e2c 19be 0145 0ebe
00000100: a029 c33c 8826 ea3d 0076 703d ace9 b13d
00000110: 9d48 623d 0c57 a63d b278 993d 8253 f63d
00000120: f46c 183d fd3a e9bd 46d6 f53d 069f 06be
00000130: 9cab 38bd 14da ba3d 0a64 be3d b25a b63c
00000140: aaac 833d 8053 0f3b 8073 d33a 3a0f 1e3d
00000150: 9ba1 a1bd 1ff2 e0bc 82e7 823d 88c1 fbbd
00000160: 8517 753d 9c05 3bbd 6007 733d 266e d83c
00000170: 3f7b 95bc 81ac 0e3e b4c6 6b3d cc45 973c
00000180: 5023 bc3c 7f23 1dbc 40a7 6abc ce72 bdbd
00000190: 2ddf 8abd 787c 033d a283 d4bd 44f3 d6bd
000001a0: bbcf b9bd ad07 f6bd c0b7 fabb 80a6 a23d
000001b0: f088 9f3c b866 953d 1d4c 213d b493 10be
000001c0: 1f6e bc3b b684 a13d 00f0 6d3c 8c34 f8bd
000001d0: 95ac 063e 673a 013e 1a7f e83d d2cf 953d
000001e0: 8814 f8bd a4b6 06be 8aaa f6bd fc9f b13d
000001f0: 03a5 073e 810c de3c a276 d33d 3835 cdbd
00000200: bcb3 7e3d e79d 9bbd 60e6 4cbd 5c40 5cbd
00000210: a67b 0cbe 0a0b c1bd 6526 cc3d cc4a 563d
00000220: d910 3cbd 9ef0 e1bd fab6 423d da42 4ebd
00000230: 5f1c 92bd 2247 02be 768e 8b3d a03c e8bc
00000240: 5289 063d dff5 f43d d5ff 46bd 0c4e 37bd
00000250: d680 c7bd 6a78 cc3d 0f0f 9e3d 8443 ba3d
00000260: 7e57 b5bd c2c6 db3d 718e 9b3d c9da 963d
00000270: 532d 0b3d 37f5 03be 0f49 78bd 904e 29bc
00000280: ea53 983d 0b3d b93c 0c23 0d3e ee86 27bc
00000290: 525c df3d d6b8 c43d 402d c2bc 3060 8d3d
000002a0: 6a28 bb3d 279e 99bd 1873 bd3d b0d4 4bbc
000002b0: 9479 0fbe e581 2bbd e201 eb3d 5031 5f3d
000002c0: 3f35 b9bd 882c d73c 6829 28bd 531c fe3d
000002d0: c798 0ebe 3ec1 f33d 068f c13d c79f f43d
000002e0: ee57 44bd 151b e03c eb68 073e 7270 ef3d
000002f0: 96b7 e93d be1c 9c3d 2978 f8bc 3b92 c93d
00000300: 71fc 1b3d 1804 a0bd 09b5 9abd b27f 17bd
00000310: 9c7c 553d 3e6a e8bd c893 cd3c 3fc7 6f3d
00000320: deb3 9abd 1dc7 15bd 0094 4aba d040 293c
00000330: f7ad afbd 3223 4d3c ea97 09be b625 f53d
00000340: b84e d13d 94bb f1bc 8178 ad3d 7ccf bfbc
00000350: 33ac ec3b ddbb 073e 78fb bc3d 46b8 f93d
00000360: 65e8 063e e480 823d 2ed7 b33d c5eb 8cbb
00000370: 2520 0fbe 6660 9abd 31fd b9bd af27 87bc
00000380: 66f0 5abd f07e 16bd 8cfc eabd 87b0 9b3d
00000390: 69cc 003e 6abf 823d 770b c13c 66db e63d
000003a0: ab3c 903d 80cc 88bb cf05 90bc 183e 3e3d
000003b0: d8d6 e93d 0d81 85bd fb10 a13d 7078 633d
000003c0: ea85 c13d 28f5 e1bc af5d a1bd 002d d53d
000003d0: 53f2 5cbd c726 e5bd bcc8 853d 4a16 e83d
000003e0: f17f a43d de91 d0bd d16c 9f3d 6431 803d
000003f0: c891 dd3c 3dc2 02bd 49f2 633d 7513 af3d
-0.07113582 -0.13152988 0.13559617 0.006608188 -0.12588981 -0.033687886 -0.064650096 -0.04484971
-0.123585425 -0.05547314 0.026734535 -0.08075745 -0.0008950504 -0.11748958 0.07557547 -0.115954384
0.042706296 -0.106204495 0.084741205 0.09004436 0.090408236 -0.05072101 -0.01175408 -0.061928973
0.12463991 -0.037902806 -0.075279504 -0.017581701 0.010738134 0.04064673 -0.0821615 -0.018611614
-0.006808114 -0.034702063 0.0570324 -0.13257514 -0.04126345 -0.07392075 -0.02145294 0.1348832
0.08001906 -0.02339214 0.009282232 0.13499223 -0.03240705 -0.007063052 -0.11677287 -0.019730322
0.07480334 -0.060617488 -0.062299293 -0.0072402507 -0.056865286 -0.055393547 -0.058988594 0.103259966
0.06672054 0.0104154125 -0.00448472 -0.08199912 -0.09466297 -0.13957566 -0.14958355 -0.1389351
0.02382356 0.114331305 0.058706284 0.086871475 0.05524503 0.081220716 0.07493724 0.120276466
0.03721328 -0.11388204 0.1200376 -0.131466 -0.045085534 0.09123626 0.09296425 0.022260044
0.064294174 0.0021869838 0.0016132444 0.03858874 -0.07892152 -0.027459202 0.06391813 -0.122927725
0.059836883 -0.045659646 0.059333205 0.02641971 -0.018247245 0.13932993 0.057562545 0.018465899
0.022966057 -0.009590982 -0.014322102 -0.09250413 -0.06780849 0.032101125 -0.103766695 -0.10495618
-0.090728246 -0.12013183 -0.0076512992 0.079419136 0.019474477 0.07294983 0.039379228 -0.14118844
0.005750432 0.07886641 0.0145225525 -0.121193975 0.13151772 0.12619935 0.11352368 0.07315029
-0.12113291 -0.1315561 -0.120442465 0.08673093 0.1324654 0.027105572 0.10325362 -0.10019916
0.062183127 -0.07598477 -0.05002439 -0.053772315 -0.13719043 -0.09425934 0.09968261 0.052317426
-0.045914505 -0.11032222 0.04753778 -0.050356723 -0.071343176 -0.12722448 0.06814282 -0.02834922
0.032845803 0.11960959 -0.048583824 -0.044752166 -0.097413704 0.09983905 0.07717716 0.09094909
-0.088545784 0.107312694 0.07595528 0.07365949 0.03397877 -0.12886511 -0.06061655 -0.010333672
0.0743788 0.022612115 0.137829 -0.010225041 0.109062806 0.09605567 -0.023703218 0.06903112
0.09138568 -0.07500868 0.09250468 -0.012440845 -0.14011222 -0.041871924 0.114749685 0.054490387
-0.09043359 0.026266351 -0.041055113 0.12407746 -0.13925467 0.119020924 0.09451108 0.119445376
-0.04793542 0.027356664 0.13223617 0.11691369 0.11411969 0.0762267 -0.030330734 0.098423444
0.038082544 -0.07813281 -0.07554061 -0.036987014 0.05212079 -0.11348389 0.025094882 0.058539625
-0.07553838 -0.036566842 -0.0007727742 0.010330394 -0.08578103 0.012520598 -0.13436857 0.119700834
0.102200925 -0.02950839 0.0847025 -0.023414366 0.007222676 0.13255258 0.09227651 0.121933505
0.13174589 0.0637224 0.08781277 -0.004300567 -0.13977106 -0.07537918 -0.090814956 -0.016498415
-0.053451918 -0.03674215 -0.11473951 0.07602029 0.12577976 0.063841656 0.023565037 0.11272316
0.070428215 -0.004174769 -0.017580895 0.046445936 0.11417931 -0.06518755 0.07864567 0.05553478
0.0944937 -0.02758272 -0.07879197 0.10408974 -0.053942036 -0.11189037 0.06532428 0.11332376
0.080322154 -0.10184072 0.07784427 0.062594205 0.027047053 -0.03192352 0.055650983 0.08548633

sequential_1/dense_5/MatMul f4 [100, 200]
00000000: 78c3 03be 5689 53bd 39ef ff3d 124e 1abd
00000010: 07a6 f9bb b882 c03b e407 8b3d 704c 28bd
00000020: e774 8abc 8b60 4bbd 0a5a 07bd 24f4 fe3c
00000030: ff79 163e ed72 00be 1330 49bd 43da e4bd
00000040: 825b dabd 02fe 04bd 3c24 81bd 81bf cb3d
00000050: 9e8b 1a3d 5fcf b13d 9578 cebd a001 3ebd
00000060: 754c a4bd 0156 783d 1126 a63d c152 0bbe
00000070: 8915 da3d b193 85bc 0159 8abd 7022 bebc
00000080: 5042 0cbe 4e6f 67bc a8ef 33bd dd2a 18be
00000090: 9478 e6bd f8cb edbd 7521 b9bd f2ed 8b3d
000000a0: 731c 093e 45e9 10be d9f0 a1bd e3ef 6fbd
000000b0: 9c8f 5ebd dadd 01bc b2ad 88bd e494 0dbe
000000c0: 8800 023d 428c 89bc 1bcb f7bd 90d9 80bc
000000d0: 8c29 8b3d 1f49 f63d b51e 923d 9412 1cbe
000000e0: 5f12 49bd 41c5 89bd 0f24 acbd 8a2c 84bd
000000f0: f8c2 0f3d 2d59 8cbd 97f3 08be eeea 10be
00000100: 482d 16be 91ed 0ebe 840b 893d 7f33 fdbd
00000110: 7d42 c2bd 0aa1 f8bd ed60 c2bd e891 4dbd
00000120: c561 263d 6922 82bd b3a9 f7bd 1478 bcbd
00000130: 4b48 eabd 36d4 a0bd 6a53 e1bc bb05 94bd
00000140: 97e4 f23c 2014 2c3d 3c3f ca3d e689 973d
00000150: 3970 013d e1bb babc b42d c8bc 0325 5c3d
00000160: d518 98bb 48b0 ef3b 3563 a03c 1eaa 11be
00000170: f192 fbbd 2583 8e3d 7f34 b23c cc98 46bd
00000180: e172 82bc 8d9f 0a3e 9cb5 9dbd 6abd bcbd
00000190: bf4b 063e 2ab8 a43c fb9b f1bd 5fa7 27bd
000001a0: aff8 14bd 3b48 a93d 87b8 2f3d 9e0e 7d3d
000001b0: 631a 583d e88a d13d 5ae9 133e 3104 d5bd
000001c0: 3a03 9abd 77f1 573d d1a6 723d 67a0 ffbc
000001d0: c865 48bd 6c72 39bc df33 d8bd ec73 f1bc
000001e0: bf2b 01bc 2584 993d ccf4 eb3d 6704 0a3e
000001f0: 197a aa3d 06ab 9bbd 0ca2 c1bd ecc1 20bd
00000200: 4ba3 ee3b 5168 603c b4bf 8c3d c99d 843d
00000210: 8aac 19bd 3c7c 76bd d4bc 01bd 8c7a 103c
00000220: 1d84 043e 4596 04be ca9c 693d 3076 8a3d
00000230: 05d5 e4bd 6a71 0bbe 8f2c 7fba 916d cabd
00000240: c515 d2bd 7e40 89bd 762d df3d 62fb 0abe
00000250: 1bc3 db3d a16d c5b9 e703 7e3d d9e5 44bd
00000260: f833 933d 17cb d4bc be74 3d3c 4df4 0bbe
00000270: 007b 0dbe 48b3 bcbd 08b5 1b3d 81e2 103e
00000280: 8234 4d3d 436e 39bd 390d 03be afd9 9a3c
00000290: 266a 02be 1a81 073d b724 0b3e 27a6 c4bc
000002a0: 187b 94bd b997 993d 0ee6 88bd 6ca4 d43d
000002b0: 6bd6 47bc d650 cf3d 2a72 9c3c ae36 3dbc
000002c0: 2ec9 ef3d 19f9 8bbc 74f4 8f3d 288f bbbd
000002d0: d9c4 35bd 7c5b d9bc a133 22bd 2959 923d
000002e0: 2914 833d 29da b4bd 1edc debd 4584 b5bd
000002f0: 19a9 443d 5faa e4bc 59bb 44bd 7fa0 953d
00000300: 75c3 db3d 2eb7 7fbd e5e7 0b3e 1aa8 c0bd
00000310: 0780 90bd 70c6 0d3c 2a1a e6bc 2670 54bd
00000320: cd61 f2bd a082 a0bd e53b 00be 1e24 13bd
00000330: aadd 323c 10b5 17be 2c62 e4bd d3b2 53bd
00000340: 84eb 1abd d3a9 a43d 3435 10bc c71c cfbd
00000350: 519a d6bd f73e 443b e203 21bd cd96 1dbd
00000360: c056 a8bd c130 6b3d 0b4d a1bd ae1c adbd
00000370: 44b3 d4bd 7497 213d d7b6 a9bd 36c8 393d
00000380: 4bb1 94bd 228a 2f3d d71e 22be 9bdc f13d
00000390: 5a69 92bd 71c0 583d 1935 e73d dfa7 9bbd
000003a0: de62 0fbe 992c 79bd a0e9 43bd b655 a93c
000003b0: 6a85 63bd 1b9e ed3c 0a64 bebd 727b 80bd
000003c0: 225b 3fbd 6a6d 58bd 2be3 5a3d 7a69 97bd
000003d0: d1c1 fa3c d551 04be ef3c 573d c018 04be
000003e0: ce6f 11be 8e35 bb3d d887 533d d6a0 eb3c
000003f0: 23e7 18be 2fa9 38bd cc67 ae3d 672a eb3d
-0.12867534 -0.051644646 0.124968 -0.03767211 -0.007618669 0.005874958 0.067886144 -0.04108852
-0.016901447 -0.049652617 -0.033044852 0.031122275 0.14694975 -0.1254384 -0.049118113 -0.111744426
-0.10661985 -0.032468803 -0.06305739 0.09948636 0.037730806 0.08682131 -0.10081593 -0.04638827
-0.080223955 0.060628895 0.08112729 -0.13605787 0.10648639 -0.016305776 -0.067552574 -0.02320978
-0.13697171 -0.014125658 -0.043929726 -0.14860101 -0.11253467 -0.116111696 -0.090395845 0.06832494
0.13389759 -0.14151485 -0.07907266 -0.058578383 -0.054336175 -0.007926429 -0.06673755 -0.13826329
0.031738788 -0.016790513 -0.12099286 -0.015728742 0.06795034 0.120256655 0.07134763 -0.15241462
-0.049089786 -0.06727076 -0.08405315 -0.06453808 0.035098046 -0.068529464 -0.13374172 -0.14152119
-0.14665711 -0.13957812 0.066916496 -0.12363338 -0.09485338 -0.12140091 -0.094911434 -0.050187975
0.040620584 -0.063542195 -0.120929144 -0.092025906 -0.1143957 -0.07852976 -0.027505595 -0.072276555
0.029650016 0.04201138 0.09875342 0.07399349 0.031601164 -0.022794666 -0.024435855 0.053746235
-0.004641632 0.0073147155 0.019578556 -0.14225051 -0.12283886 0.069586076 0.021753548 -0.048485562
-0.01592392 0.13537426 -0.07700655 -0.09215815 0.13114832 0.020107348 -0.11797329 -0.040931102
-0.036369976 0.0826573 0.04290059 0.06178152 0.05275954 0.102315724 0.14444485 -0.1040119
-0.07520147 0.052720513 0.05924112 -0.031204415 -0.04892519 -0.011318784 -0.105567686 -0.029474221
-0.007883965 0.07495908 0.11521301 0.13478242 0.083240695 -0.076009795 -0.09454736 -0.03924744
0.0072826496 0.013696746 0.06872502 0.06475408 -0.03751806 -0.060177073 -0.03167422 0.00881828
0.12941022 -0.12947948 0.05703429 0.06760824 -0.11173443 -0.13617483 -0.0009734118 -0.098841794
-0.102580585 -0.06701754 0.10897343 -0.13572457 0.10730573 -0.00037656448 0.06201544 -0.048070762
0.071876466 -0.025975747 0.011563478 -0.13667412 -0.13816452 -0.09213883 0.03801444 0.14148904
0.050098903 -0.04527117 -0.12798013 0.018902628 -0.12735805 0.033082105 0.13588224 -0.024005009
-0.07250041 0.07499642 -0.066845044 0.103829235 -0.012197117 0.1012284 0.019097406 -0.011548681
0.11708294 -0.017086552 0.070290476 -0.09158164 -0.04437718 -0.026532881 -0.03960002 0.07145912
0.064003296 -0.08830673 -0.10881828 -0.08863119 0.048012827 -0.02791327 -0.04803023 0.07306003
0.1073064 -0.062430553 0.1366268 -0.09407063 -0.07055669 0.008653268 -0.028088648 -0.051864766
-0.1183506 -0.07837415 -0.12522848 -0.035923116 0.010917107 -0.14815164 -0.11151537 -0.051684212
-0.03782226 0.08040204 -0.008801747 -0.10112911 -0.10478652 0.0029944757 -0.039310344 -0.038473893
-0.08219671 0.057419542 -0.07876023 -0.08452736 -0.10385755 0.039451078 -0.08286827 0.04535695
-0.072603785 0.042856343 -0.15832077 0.11809655 -0.071490005 0.0529179 0.112894244 -0.07600378
-0.14002559 -0.060833547 -0.047830224 0.020670753 -0.055547155 0.029006055 -0.09296425 -0.06273545
-0.04671777 -0.05283872 0.0534393 -0.07393165 0.030609997 -0.12921841 0.052548345 -0.12900066
-0.14202806 0.09141074 0.051643223 0.028763216 -0.14931922 -0.04508322 0.085158914 0.11482697

sequential_1/dense_6/MatMul f4 [1, 100]
00000000: 2161 303c df22 56be 0b77 053e 8edf 37bd
00000010: b181 b4bc b922 56bc 2797 debd 88e7 1abe
00000020: 09e6 ca3b cb20 2f3e fa46 443c d132 863d
00000030: 3215 123d 5b84 373e 99c7 97bd 7bab e93d
00000040: 934f 81bd 8377 6f3d b964 9c3d 4b5d adbb
00000050: 1b6b 1cbe 0293 1ebd 67ff c43d 2285 debd
00000060: 0dd5 01be a568 db3d 7432 d83c 41c4 513d
00000070: c7df c63d 6ce5 ccbc 4e90 58be bf97 09be
00000080: ba1c d4bd 0776 c8bd ac79 943b f34c b03c
00000090: 3a33 4bbd 15be 443e 58ce 07bd 63c5 193d
000000a0: 5e4c 873d a6a1 13be b0ed bc3d 88b7 853d
000000b0: 46c1 733c e1f3 ccbd a50b 293e e8ed d13d
000000c0: 76f5 1d3e 9cf4 fc3d adc5 8dbd 440d fabd
000000d0: ffc3 dbbd 9c94 60be 428a 1e3e 4c45 31bc
000000e0: 6faa 063d fd09 89bb ba4a b1bd 27ba 0a3b
000000f0: 6546 2bbe 3740 c93d 3b87 50bd 823c ddbd
00000100: dcf6 473a 24bc 543d 06aa ecbd 7e2c 04bd
00000110: c55c 743d f15f 303e 3a11 d4bd ba93 29bc
00000120: 9601 5abe 2790 4a3e f5a3 26bd 7cc6 9ebd
00000130: b717 503d d54c b93d cf28 2abe 0c23 a3bd
00000140: e99e f5bd 543c 35bd 1665 503d aa84 95bc
00000150: 94ce 9abd d296 023e d511 4c3e e415 e0bd
00000160: c532 33be 0472 43be 7dd2 0f3e 5576 443d
00000170: 0d68 65be e45d f9bd 8238 593e 7710 5d3d
00000180: a8a1 15be 707c 1ebc 71eb 63ba 71c7 04be
0.010765345 -0.2091174 0.13033693 -0.044890933 -0.022034498 -0.013069802 -0.10868674 -0.15127385
0.006191973 0.17102353 0.011979813 0.06552661 0.035664745 0.17921583 -0.07411117 0.114096604
-0.06314006 0.058463585 0.07636399 -0.0052906624 -0.15275232 -0.038714416 0.09619027 -0.10865237
-0.12678929 0.10713319 0.026391245 0.051212553 0.09710651 -0.02501174 -0.21148798 -0.13436793
-0.10357042 -0.09788137 0.004531106 0.021521067 -0.0496094 0.19213136 -0.03315577 0.03754176
0.06606363 -0.14417133 0.09225023 0.065291464 0.014877623 -0.10007454 0.16508348 0.10250455
0.15425667 0.12351343 -0.06922469 -0.122095615 -0.10730743 -0.2193169 0.15482429 -0.010819744
0.032877382 -0.004182099 -0.08656831 0.0021168084 -0.16726072 0.09826701 -0.050910216 -0.108025566
0.00076280325 0.051937237 -0.11555867 -0.032268994 0.059658784 0.17224099 -0.10354848 -0.010350162
-0.21289667 0.19781552 -0.040683705 -0.07752702 0.050803866 0.09047858 -0.1661713 -0.07965669
-0.119932 -0.044246987 0.050877653 -0.018251736 -0.07558933 0.12752846 0.19928677 -0.10941675
-0.17499836 -0.19086462 0.14045139 0.047964413 -0.22402973 -0.12176111 0.21212962 0.05397078
-0.14612448 -0.009673223 -0.00086944463 -0.12966706
